ml-agents-release_19_branch/Project/Assets/ML-Agents/Examples/FoodCollector/GridFoodCollector.onnx (onnx, 853236 bytes, 11 tensors)

action_model._continuous_distribution.log_sigma f4 [1, 3]
0	0xbe20f920	-0.15720034
1	0xbd98f734	-0.07469025
2	0xbde1d756	-0.110274

action_model._continuous_distribution.mu.bias f4 [3]
0	0xbca4badf	-0.020108638
1	0xbb6895b8	-0.003548963
2	0x3c23a326	0.009987628

action_model._continuous_distribution.mu.weight f4 [3, 256]
0	0x3ca00c4e	0.019537117
1	0x3c4f61ee	0.012657626
2	0xbcec5cc7	-0.028852833
3	0x3c836f85	0.016044388
4	0xbc9b1eb6	-0.018935543
5	0x3b5326a7	0.0032219084
6	0x3d1494f7	0.036274876
7	0xbbb14f44	-0.0054110605
8	0x3b93ba86	0.0045083193
9	0xba352ca5	-0.00069112546
10	0x3bee3ff7	0.007270809
11	0xbd527f95	-0.051391203
12	0x3c25a6f3	0.010110605
13	0x3cb0cc3d	0.021581763
14	0xbc2f9b4d	-0.010718179
15	0xbcfe3656	-0.031031769
16	0xbcac7272	-0.021050666
17	0x3d59629c	0.053072557
18	0xbd13c7b2	-0.036079116
19	0xbb351c5d	-0.0027635314
20	0xbcf68680	-0.030093431
21	0xbc3438da	-0.010999883
22	0xbd485123	-0.048905503
23	0xbcbbece9	-0.022940116
24	0xbbb122ad	-0.005405745
25	0xbcc8f3d4	-0.024530329
26	0x3ccd3835	0.025051216
27	0x3d5b75cf	0.053579148
28	0x3d8ad71e	0.067793116
29	0xbc8af795	-0.01696376
30	0xbc98e170	-0.018662184
31	0xbd1e466d	-0.038641382
32	0xbd021285	-0.031755943
33	0x3d0ddf1f	0.034636613
34	0xbd3b53a5	-0.045734067
35	0xbd14d4ee	-0.036335878
36	0xbc82be8d	-0.015960002
37	0x3b92803c	0.004470853
38	0xbd179357	-0.03700575
39	0x3d4e1466	0.050312422
40	0x3cb3d143	0.02195037
41	0xbbab8eb4	-0.0052355174
42	0xbd7377e4	-0.05944051
43	0xbca52858	-0.020160839
44	0x3d2a9148	0.041642457
45	0xbcd457a2	-0.025920693
46	0xbcc47d04	-0.023985393
47	0xbd6c3c77	-0.05767485
48	0x3cd5833b	0.026063552
49	0x3bb32b68	0.005467821
50	0x3d1fe595	0.039037306
51	0x3c731e2c	0.0148387365
52	0xbcb29a2f	-0.021802036
53	0x3bc5be3b	0.00603464
54	0x3d38560c	0.045003936
55	0x3c2a2ea8	0.0103871
56	0x3c819251	0.01581684
57	0x3cf4a7d5	0.029865185
58	0xbc1e42a5	-0.009659444
59	0x3d878f72	0.06619157
60	0xbd897d18	-0.06713313
61	0x3d0c7d5e	0.034299247
62	0xbd4f9829	-0.05068222
63	0x3d191a36	0.037378512
64	0x3d1e76b2	0.038687415
65	0xbd141ad2	-0.03615839
66	0x3c7cc537	0.015427879
67	0x3b6182a6	0.0034410148
68	0xbc213286	-0.009838706
69	0x3c9d241f	0.019182263
70	0x3b8281a6	0.0039827405
71	0xbca5e3ed	-0.020250285
72	0xbb9643cf	-0.00458572
73	0x3c2e7796	0.010648629
74	0x3d58381d	0.05278789
75	0xbd2fcbae	-0.042918853
76	0xbd319ba3	-0.043361317
77	0xbc812d83	-0.015768772
78	0x3cd59d29	0.026075916
79	0xbc7f4488	-0.015580304
80	0xbd37a1e4	-0.044832125
81	0x3d61ceb4	0.055128768
82	0xbd4c5312	-0.04988391
83	0xbbe73a9d	-0.007056548
84	0xbd04ee2e	-0.03245371
85	0xbc52b439	-0.012860351
86	0x3d14bb14	0.036311224
87	0xbcf4a766	-0.029864978
88	0x3d04c385	0.032413024
89	0xbc863bfa	-0.01638602
90	0xbd2780d3	-0.04089434
91	0x3c2dcd12	0.010607975
92	0xbce42454	-0.027849354
93	0x3cd93226	0.02651317
94	0x3d7498e0	0.059716105
95	0x3b9f3400	0.004858494
96	0xbb74f127	-0.0037375183
97	0xbba23522	-0.0049501816
98	0xbc72d009	-0.014820107
99	0xbd0f3d8d	-0.03497081
100	0x3d111b22	0.035426266
101	0x3c9e386d	0.019314015
102	0x3c80d8a5	0.015728304
103	0xbc818a74	-0.01581309
104	0xbcac2e93	-0.021018302
105	0x3d1e627b	0.038668137
106	0xbd0387ca	-0.03211192
107	0xbd7263fc	-0.059177384
108	0xbcc9d98f	-0.024639873
109	0x3cf9607d	0.030441517
110	0xbd5101e0	-0.05102718
111	0xbd2e0a8b	-0.042490523
112	0x3c9dbfdd	0.019256527
113	0xbce2d126	-0.02768762
114	0xbd1182f6	-0.035525285
115	0x3ceee9df	0.029164253
116	0x3ced98da	0.02900355
117	0x3d6a6fb6	0.057235442
118	0xbc69c94d	-0.014269185
119	0xbd2db831	-0.042411987
120	0x3cbad6dc	0.022807531
121	0x392dd515	0.00016577945
122	0xbc9fe6de	-0.019519266
123	0x3d7bf2cf	0.061510857
124	0xbc970b0c	-0.018437885
125	0x3d290c20	0.04127133
126	0xbbdccf3a	-0.0067385705
127	0x3b9138ba	0.004431811
128	0xbc869265	-0.016427228
129	0x3d465c91	0.048428122
130	0x3bfe1bf4	0.007754797
131	0x3d626cda	0.05527959
132	0x3c8fee6d	0.017569745
133	0x3d7f18b2	0.06227941
134	0xbd5496cf	-0.051901635
135	0x3d46ae56	0.048506103
136	0xbd25cb27	-0.040476944
137	0xbcc231d8	-0.023705408
138	0xbac8f1c1	-0.0015330837
139	0xbd4fc78a	-0.050727405
140	0x3d4e4e2d	0.050367523
141	0xbc739701	-0.014867545
142	0x3cd97258	0.026543781
143	0xbd21f795	-0.039542753
144	0xbd0ee215	-0.034883577
145	0x3d0bb440	0.034107447
146	0x3d1a34aa	0.03764788
147	0xbb3efdd4	-0.0029142993
148	0x3c6cbd83	0.01444948
149	0xbbeb5d9c	-0.00718279
150	0xbcb4b096	-0.022056859
151	0x3d22b196	0.03972014
152	0x3d1f458b	0.03888468
153	0x3cbaee66	0.022818755
154	0xbc086a5b	-0.008326138
155	0xbd0ef31d	-0.03489982
156	0x3caf549e	0.021402653
157	0x3d8ee8af	0.069779746
158	0x3ce3246d	0.02772733
159	0x3d4a645b	0.049412113
160	0x3c5a6455	0.013329585
161	0xbc3979ad	-0.011320514
162	0xbcfd8d50	-0.030951172
163	0x3d59aa4b	0.05314092
164	0xbc7d8677	-0.015473953
165	0xbd4d0610	-0.05005461
166	0x3d883b0d	0.06651888
167	0x3cd771a7	0.02629931
168	0x3d1fc0db	0.03900228
169	0x3d81984d	0.06327877
170	0x3ce1548c	0.027506135
171	0xbd022951	-0.031777684
172	0x3c715ab1	0.014731095
173	0x3d3e2a34	0.046426967
174	0x3d9fde06	0.078060195
175	0x3b9fe066	0.0048790453
176	0x3c887287	0.016656173
177	0xbc88f6f8	-0.016719326
178	0xbce4400c	-0.027862571
179	0x3d815529	0.06315071
180	0xbc17e5e5	-0.00927112
181	0x3d8a4a0a	0.06752403
182	0xbd1ff1a3	-0.039048802
183	0x3d033df4	0.032041505
184	0x3cf3c684	0.029757746
185	0x3d0a3cac	0.033749267
186	0x3c1d871a	0.00961473
187	0x3cbd70c0	0.023125052
188	0xbc513826	-0.0127697345
189	0xbc3310c3	-0.010929289
190	0xbd0468c7	-0.032326486
191	0x3b9de62c	0.0048186984
192	0xbd2b0493	-0.04175241
193	0xbbfa3fb2	-0.0076369876
194	0xbd1ebb58	-0.038752884
195	0x3d29596b	0.04134504
196	0xbcb48f18	-0.022040889
197	0x3cd2b24e	0.025719788
198	0x3cac7950	0.02105394
199	0xbd1c8058	-0.038208336
200	0x3b6ef391	0.0036461095
201	0x3d038e8e	0.032118373
202	0x3d24d51c	0.0402423
203	0x3d089e57	0.03335413
204	0xb972a3e3	-0.00023139971
205	0x3c901d18	0.017591998
206	0xbd7a36f3	-0.06108756
207	0x3d0621c3	0.03274704
208	0x3d08fe1d	0.033445466
209	0x3b9ae5f1	0.004727118
210	0x3c83af30	0.016074747
211	0xbd3274ce	-0.043568425
212	0xbb8d7a37	-0.0043175477
213	0x3cc966b5	0.024585107
214	0x3b80e5af	0.0039336304
215	0x3c5b61b7	0.013389996
216	0x3d1f6c88	0.038921863
217	0x3cd071e9	0.025444942
218	0x3bc5d3be	0.0060372045
219	0xbd1462e0	-0.036227107
220	0x3c692921	0.014230997
221	0x3cf41469	0.029794889
222	0xbce15175	-0.027504662
223	0x3c72d22a	0.014820615
224	0xbd6264dd	-0.055271972
225	0x3d1930d7	0.037400093
226	0xbd53a716	-0.051673017
227	0xbc3d6359	-0.011559331
228	0xbd6dad73	-0.058026742
229	0xbd24e625	-0.040258545
230	0xbca3e20f	-0.020005254
231	0x3d518aec	0.051157877
232	0xbda23d87	-0.07921892
233	0xbd4ba643	-0.049719106
234	0xbbe6c459	-0.0070424494
235	0x3d4371de	0.047716014
236	0xbbf340ff	-0.0074235196
237	0x3cd4fe23	0.026000088
238	0xbd9055b5	-0.07047597
239	0x3cd0d645	0.025492797
240	0x3c832438	0.016008481
241	0xbce41b7a	-0.027845133
242	0xbb71852c	-0.0036853058
243	0x3d10a738	0.035315722
244	0x3c57f01f	0.013179808
245	0xbc22eb89	-0.009943851
246	0xbcad6b61	-0.021169366
247	0x3d4f608c	0.050629184
248	0x3b781583	0.003785462
249	0x3d4d7b31	0.050166313
250	0xbcadfc04	-0.021238334
251	0xbce0d6b7	-0.027446134
252	0x3d4d126f	0.050066408
253	0x3cf0e614	0.029406585
254	0x3d111f4a	0.03543023
255	0x3cbae896	0.022815984

network_body._body_endoder.seq_layers.0.bias f4 [256]
0	0x3b4dfb2e	0.0031430232
1	0xbbe1d280	-0.0068915486
2	0x3c4be4ee	0.012444718
3	0xbba0a51e	-0.004902496
4	0x3c3486a5	0.01101843
5	0x3c2e1795	0.01062574
6	0xbcd2c4bf	-0.025728581
7	0xbb1a4fa8	-0.0023546014
8	0x3c1adc26	0.009451902
9	0x3c4dc7a4	0.012559805
10	0x3aa071fe	0.0012241004
11	0x3cb92ece	0.022605326
12	0x3c0d4923	0.008623394
13	0x3c12cfe3	0.008960697
14	0x3c26648d	0.010155809
15	0x3c6e3ea1	0.014541299
16	0x3c18f8bd	0.009336648
17	0xbc29d93a	-0.010366732
18	0x3c910349	0.017701762
19	0xba26512f	-0.0006344495
20	0x3c33f353	0.010983306
21	0x3bc7f538	0.0061022304
22	0x3c992fbe	0.018699523
23	0x3b9fa8a8	0.0048724003
24	0x3a91173e	0.0011069549
25	0x3c939bcd	0.018018628
26	0xbbca31c6	-0.0061704842
27	0xbc13093a	-0.008974368
28	0x3aa23dd7	0.0012378049
29	0x3be713fd	0.0070519433
30	0x3c40690b	0.011743794
31	0x3c7e235d	0.015511361
32	0x3bfd77f9	0.007735249
33	0xbcc6c418	-0.024263427
34	0x3ca6b68a	0.020350713
35	0x3c95f95e	0.018307384
36	0x3cbb5c97	0.022871299
37	0x3c1e3ae4	0.009657595
38	0x3c8fab02	0.017537598
39	0xbc384b35	-0.0112483995
40	0x3b0655ca	0.0020497912
41	0x3becc8e1	0.007226095
42	0x3cc4bfbd	0.02401721
43	0x3c7c1dca	0.015387962
44	0xbc35a02b	-0.01108555
45	0x3c93ac88	0.018026605
46	0x3c36a7f6	0.011148443
47	0x3c8d0138	0.017212495
48	0x3b41f803	0.002959729
49	0x3ab9add7	0.0014166188
50	0x3a3c48a2	0.0007182454
51	0x3bc37178	0.0059644543
52	0x3c0b3eec	0.008498888
53	0x3c53f48e	0.012936724
54	0xbb95aa48	-0.0045674182
55	0xba9a8b8f	-0.0011790859
56	0x3c1b78e8	0.0094892755
57	0xbafe39d3	-0.0019395895
58	0x3bbc1cbe	0.005740731
59	0xbab72f21	-0.0013975838
60	0x3cad46c9	0.021151917
61	0xbcc4906d	-0.023994649
62	0x3c7efbd2	0.015562968
63	0xbc2cda7f	-0.01055014
64	0xbc9781af	-0.018494455
65	0x3c717943	0.014738384
66	0xbaebe3a3	-0.0017996918
67	0x3bb202c6	0.0054324595
68	0x3a9cdccb	0.0011967657
69	0xbb73aa88	-0.0037180502
70	0x3c8eb17d	0.017418617
71	0x3c7e3e35	0.015517761
72	0x3c87de57	0.016585512
73	0x3a9693f3	0.0011488184
74	0xbca7d743	-0.020488387
75	0x3c88c1e9	0.016694026
76	0x3c525755	0.012838204
77	0x3c557d9f	0.013030439
78	0xbb5aec58	-0.0033405032
79	0x3c4fd5bd	0.0126852365
80	0x3ca1a32a	0.019731123
81	0x3b8fbaa5	0.0043862634
82	0x3c87ab01	0.016561033
83	0x3bf956b3	0.0076092123
84	0x3cb01133	0.021492576
85	0x3bf543be	0.007484882
86	0xbcd53970	-0.026028365
87	0x3cbd821d	0.023133332
88	0xbc3632ed	-0.01112054
89	0x3cb0e1eb	0.021592101
90	0x3ca6757b	0.02031969
91	0x3c0a63c6	0.008446639
92	0x3cdbb41c	0.026819281
93	0xbc6f1d53	-0.014594394
94	0xbc5105c2	-0.01275772
95	0x3b356c63	0.0027683012
96	0x3c4975a0	0.01229611
97	0x3c89a5ab	0.01680263
98	0x3c12ef37	0.008968166
99	0x3cfb01a7	0.030640436
100	0xbc465e09	-0.012107381
101	0x3b252d3c	0.0025203964
102	0x3c81983b	0.01581966
103	0x3c1f5887	0.009725696
104	0x3c3f353e	0.011670409
105	0xbca58c9b	-0.020208647
106	0x3caed3de	0.02134126
107	0x3ca3829b	0.019959738
108	0x3cb3c131	0.021942707
109	0xbc8adc7b	-0.016950836
110	0x3c78e566	0.015191412
111	0x3c6bb896	0.01438727
112	0xbc354ebe	-0.011066137
113	0x3c81bd7a	0.01583742
114	0x3c828d38	0.015936479
115	0xbbe2f96e	-0.006926707
116	0xbc40ae7c	-0.01176035
117	0x3b376dd2	0.0027989042
118	0x3c08ab0b	0.008341561
119	0x3ca6848b	0.020326873
120	0xbbb185eb	-0.0054175756
121	0x397fc634	0.00024392531
122	0x3c0cdf04	0.008598093
123	0xbb9b9d82	-0.004749001
124	0x3c5e3998	0.013563536
125	0xbc1a6d75	-0.009425511
126	0x3c97b48b	0.018518707
127	0x3ac598bc	0.0015075426
128	0x3bcb2409	0.006199364
129	0xbc1e0419	-0.009644532
130	0xbb4d880d	-0.003136161
131	0xbaa40eb4	-0.0012516589
132	0xbca019ef	-0.019543616
133	0xbbe7237f	-0.007053792
134	0x3cbf8af5	0.02338169
135	0xbc15c26a	-0.00914059
136	0x3c8bd7c4	0.017070659
137	0x3c8fbe3c	0.017546766
138	0x3c148b29	0.0090663815
139	0x3cb64cae	0.02225336
140	0xbc60e39c	-0.013726141
141	0x3bd8248e	0.0065961545
142	0xbc016161	-0.007896752
143	0x3c681e6d	0.01416741
144	0x3ca8f5ba	0.020624984
145	0x3bc4c2f4	0.0060046855
146	0xbc5a0535	-0.0133069055
147	0x3c3b14f6	0.011418572
148	0x3b8d96c3	0.0043209507
149	0x3bd2c70c	0.0064324196
150	0x3c686c76	0.014186015
151	0xba9beb06	-0.0011895604
152	0xbca83b66	-0.020536136
153	0xbca172ec	-0.01970812
154	0x3b67897e	0.0035329754
155	0x3c35110a	0.011051426
156	0x3b8acae3	0.0042356118
157	0xbc7e0d23	-0.015506062
158	0x3ad9faf9	0.0016630582
159	0xbc25eb32	-0.010126876
160	0x3ba94cae	0.0051666116
161	0x3c5900b7	0.013244799
162	0x3c4d04fa	0.012513394
163	0xbb9aa305	-0.0047191405
164	0x3c49a395	0.012307067
165	0x3cb19eff	0.02168226
166	0xbbc92e01	-0.0061395173
167	0xbc829d8b	-0.015944263
168	0xbbd8de43	-0.0066182925
169	0xbc080cb0	-0.008303806
170	0xbba662ec	-0.0050777104
171	0x3c7f823a	0.015595013
172	0xbbd93905	-0.0066291117
173	0xbbe36b42	-0.0069402764
174	0xbc46bd8e	-0.012130154
175	0x3bc8d7df	0.0061292495
176	0x3ad7d7b2	0.001646748
177	0x3c65215a	0.013985002
178	0x3c9494c7	0.018137349
179	0xbc8239c2	-0.015896682
180	0x3c375021	0.011188538
181	0xba6adc2a	-0.00089591986
182	0x3c8e18ed	0.01734587
183	0x38deb42c	0.000106193445
184	0x3b43a6c6	0.0029854043
185	0x3bb1b9bd	0.005423753
186	0xbabfa574	-0.0014621452
187	0x3b90e447	0.004421744
188	0x3c60a991	0.013712303
189	0x3aef9524	0.00182787
190	0x3c0a7084	0.008449677
191	0xbb2aa55b	-0.00260385
192	0x3cb03197	0.021508021
193	0x3b2f3d27	0.002673933
194	0x3c9a80b7	0.018860204
195	0xbb6d7310	-0.0036231913
196	0x3c972dcc	0.018454455
197	0xbb48e340	-0.003065303
198	0xbb7b95ad	-0.0038388774
199	0x3c1ebefd	0.00968909
200	0x3c94407d	0.018097157
201	0xbbd57107	-0.006513718
202	0xbb3d5d45	-0.0028894704
203	0xbb7c937d	-0.0038540058
204	0x3c21b1c9	0.009869047
205	0x3a63e25b	0.00086930924
206	0x3caa5f20	0.020797312
207	0x3b8a224c	0.0042155143
208	0xbb10c2b6	-0.0022088713
209	0x3b9bd86f	0.0047560255
210	0x3c386827	0.011255301
211	0x3caa8292	0.020814214
212	0x3c859caa	0.016310055
213	0x3a215fb2	0.00061559223
214	0xb9eda73e	-0.00045328768
215	0x3c1d3753	0.00959571
216	0xbc1a331e	-0.009411601
217	0xba96e86c	-0.0011513359
218	0x3c20b499	0.009808683
219	0x3ccf4ab7	0.025304182
220	0x3c54b979	0.012983673
221	0xbb8c79aa	-0.0042869644
222	0x3c8fe352	0.01756445
223	0xbc18d3f0	-0.009327874
224	0x3cb924f7	0.022600634
225	0xbcb13bba	-0.021634925
226	0x3cae7288	0.021294847
227	0x3c8f18f7	0.017467959
228	0x3cb269ed	0.021779025
229	0x3c8e00b3	0.017334318
230	0x3c878bf4	0.016546227
231	0xbb667fa4	-0.0035171295
232	0x3cbf44d7	0.023348255
233	0x3cb12c33	0.021627521
234	0x3b9528e0	0.004551992
235	0xbc001921	-0.007818491
236	0x3b364441	0.0027811679
237	0xbbe4e37f	-0.0069851275
238	0x3cde743f	0.02715504
239	0x3b1e2376	0.0024130023
240	0x3c4fa209	0.01267291
241	0x3cef8d3b	0.029242149
242	0x3a077eae	0.0005168718
243	0x3baacaba	0.005212155
244	0x3c9c9a9e	0.019116696
245	0x3c90a217	0.017655415
246	0x3c9bf542	0.019037846
247	0xbbffc7cd	-0.0078058005
248	0x3c1f8bf1	0.0097379545
249	0xbb8f2f30	-0.004369639
250	0x3c4c6e20	0.012477428
251	0x3c944698	0.018100068
252	0xbc9567f6	-0.018238049
253	0xbba00a94	-0.0048840735
254	0xbc44d77a	-0.012014264
255	0xbc9e114a	-0.019295353

network_body._body_endoder.seq_layers.0.weight f4 [256, 257]
0	0x3c1d1f6e	0.009590013
1	0x3db4742a	0.08811219
2	0x3d835911	0.064134724
3	0x3c8e194e	0.01734605
4	0x3be3fb4e	0.006957448
5	0xbcad5521	-0.021158757
6	0xbd74d914	-0.059777334
7	0x3d2f2241	0.042757276
8	0xbd9b45e5	-0.07581691
9	0xba82e711	-0.0009987076
10	0xbde7e683	-0.113232635
11	0x3bc4e672	0.0060089165
12	0x3b84af0e	0.0040491885
13	0x3de4de90	0.11175263
14	0xbc643ba2	-0.013930233
15	0xbd1cd7a5	-0.038291592
16	0xb907a0fc	-0.00012934575
17	0xbb49c460	-0.0030787215
18	0x3d5678b8	0.05236122
19	0x3d8c39b1	0.06846941
20	0xbd12b108	-0.03581336
21	0xbd166466	-0.03671684
22	0x3c3213c4	0.01086897
23	0xbe372c18	-0.17887914
24	0xbbd8946f	-0.0066094915
25	0xbdaa0744	-0.08302167
26	0xbd13ea3f	-0.036112066
27	0x3cf4dc94	0.029890336
28	0xbdca019b	-0.098635875
29	0x3ddee46a	0.1088341
30	0xbb912031	-0.0044288863
31	0xbc69cf61	-0.014270634
32	0xbb25c82e	-0.0025296318
33	0x3d815581	0.06315137
34	0xbcf7c148	-0.03024353
35	0xbd5c0c0b	-0.053722423
36	0x3bf9f26a	0.007627775
37	0xbc6d8bb6	-0.014498642
38	0x3d8b8756	0.06812923
39	0xbdb44e45	-0.08803991
40	0x3b904dc3	0.004403801
41	0xbd8acd3b	-0.06777426
42	0x3d82acf6	0.06380646
43	0xbd3bac00	-0.04581833
44	0xbe3d2414	-0.18470794
45	0xbcbb6a6e	-0.022877898
46	0x3d4b2a90	0.049601138
47	0x3c98c64d	0.018649245
48	0x3dd2b802	0.10289003
49	0xbda1b87a	-0.07896514
50	0x3c2d8f84	0.010593299
51	0xbd04ea96	-0.03245028
52	0x3cd07f63	0.025451368
53	0xbca52525	-0.020159313
54	0xbd6330fd	-0.05546664
55	0x3e30ac0d	0.17253132
56	0xbd3b35db	-0.045705657
57	0x3caee204	0.021348007
58	0x3dba30a6	0.0909131
59	0x3b47b1ec	0.003047104
60	0xbdc11255	-0.09427325
61	0xbccea0e6	-0.025223207
62	0x3d17e20c	0.03708081
63	0x3d7210da	0.059098102
64	0x3dd31fb8	0.10308784
65	0xbcbd4220	-0.02310282
66	0x3d05c5a5	0.03265919
67	0x3cde7b64	0.027158447
68	0x3cbaf7fe	0.02282333
69	0x3d8b72a6	0.06808977
70	0xbca61950	-0.020275742
71	0x3d2233ce	0.039600186
72	0x3da14c7f	0.078759186
73	0x3d5703ce	0.052493863
74	0x3c467912	0.012113826
75	0x3adcb2e2	0.0016837979
76	0x3b995638	0.0046794675
77	0xbd5efa74	-0.05443807
78	0x3d0c6a82	0.03428126
79	0x3d55ff0b	0.05224518
80	0xbe1203b6	-0.14259228
81	0x3d218b52	0.039439507
82	0x3b01f75f	0.0019831283
83	0x3d312dd4	0.043256596
84	0x3dd15740	0.1022172
85	0xbd8616ab	-0.06547292
86	0xbcdadda7	-0.02671702
87	0xbc8a7348	-0.016900674
88	0x3d09a12d	0.033600975
89	0x3cf04528	0.029329851
90	0xbd2536d2	-0.040335484
91	0xbdae5efe	-0.08514212
92	0x3d0e47ee	0.034736566
93	0x3e1e4ae3	0.15458255
94	0x3a26a1f3	0.000635653
95	0xbde91d42	-0.113825336
96	0xbb5e5c83	-0.0033929653
97	0xbc313db2	-0.010817932
98	0xbbc81d8c	-0.006107038
99	0x3bc38b57	0.0059675383
100	0x3c80781a	0.015682269
101	0x3d8bf844	0.06834462
102	0x3c9bf2df	0.019036708
103	0x3babb76d	0.005240372
104	0xbcebd415	-0.028787652
105	0xbd4e3dd9	-0.05035195
106	0x3ca640ae	0.020294514
107	0x3dbece9c	0.09316751
108	0xbc1907b8	-0.009340219
109	0x3c16e699	0.009210252
110	0x3d044e45	0.032301206
111	0xbd3776e7	-0.04479113
112	0xbde17a06	-0.11009602
113	0xbe0a3ccb	-0.13499753
114	0x3d145efe	0.036223404
115	0xbdbef8f7	-0.0932483
116	0xbdd48d02	-0.103784576
117	0xbd6042f0	-0.054751337
118	0x3d03de57	0.03219446
119	0x3d63015e	0.055421226
120	0x3db13027	0.086517625
121	0xbd86f51b	-0.06589719
122	0x3de03cfe	0.10949133
123	0xbe026dcc	-0.12737197
124	0xbcaaa2eb	-0.020829638
125	0x3b987cf6	0.0046535684
126	0xbd9f1da0	-0.077693224
127	0x3dcba44d	0.09943447
128	0x3c94d496	0.018167775
129	0xbdcb42ce	-0.09924851
130	0x3cd30777	0.025760395
131	0xbd54f602	-0.051992424
132	0x3cefd4d5	0.02927629
133	0xbdab50e8	-0.08365041
134	0x3d758b29	0.059947167
135	0xbd2beb0d	-0.04197221
136	0xbaabbeac	-0.0013103089
137	0x3c0a289b	0.008432533
138	0xba46d29e	-0.0007584485
139	0x3e062e79	0.13103665
140	0x3da0a5d5	0.0784413
141	0xbc98de43	-0.01866067
142	0xbc4ab78e	-0.012372864
143	0x3cf6c99c	0.030125432
144	0xbb3c5980	-0.002873987
145	0x3cda9b54	0.026685394
146	0xbdb0ef67	-0.086394124
147	0xbc1bcd11	-0.009509341
148	0x3d86c54c	0.065806
149	0xbd545562	-0.05183924
150	0x3c6fa2f6	0.014626255
151	0x3d08cdc1	0.033399347
152	0x3b0e4a48	0.0021711756
153	0x3d13cf25	0.03608622
154	0x3d38f468	0.04515496
155	0xbcfcb983	-0.030850178
156	0xbd19cfdd	-0.03755175
157	0x3c5abfca	0.01335139
158	0x3cc49b48	0.023999825
159	0x3bd93758	0.006628912
160	0xbc071b58	-0.008246265
161	0xbe2553db	-0.1614527
162	0x3d00958d	0.031392623
163	0x3cba20f9	0.0227208
164	0xbd73b10c	-0.059495017
165	0xbcaec556	-0.021334331
166	0xbdb410cc	-0.08792266
167	0x3de97f7e	0.1140127
168	0xbd76deb6	-0.060270987
169	0x3cab8284	0.020936258
170	0xbde8221a	-0.11334629
171	0x3d0ae4a1	0.033909444
172	0xbdf80f73	-0.12112322
173	0x3d8a2aed	0.06746469
174	0x3e1ecd11	0.15507914
175	0xbd0018b1	-0.031273548
176	0xbc9993c7	-0.018747224
177	0x3cee3a5b	0.02908056
178	0x3cd393c9	0.025827305
179	0x3d046492	0.032322474
180	0x3dab67cf	0.08369409
181	0xbe1d14ab	-0.15339915
182	0x3d89837d	0.067145325
183	0xbc5bd94a	-0.013418505
184	0xbd5083b5	-0.050906856
185	0x3d3b8943	0.0457852
186	0xbdf9044f	-0.12159025
187	0x3dcb9c6b	0.09941944
188	0x3d779039	0.060440276
189	0xbde22375	-0.11041919
190	0xbc309238	-0.010777049
191	0xbd570e0b	-0.052503627
192	0x3b368637	0.0027850994
193	0x3c926f0d	0.017875219
194	0xbc8c55bd	-0.017130727
195	0x3d4b3fb3	0.049621295
196	0x3d351e23	0.044218194
197	0x3e33d1d6	0.17560515
198	0xbdd02536	-0.101633474
199	0x3d81e15a	0.063418105
200	0xbe31b5d7	-0.17354523
201	0xbd7e8553	-0.062138867
202	0x3d264598	0.040593714
203	0xbc9cbf7f	-0.019134281
204	0x3ba9b263	0.005178736
205	0x3e06f32f	0.13178705
206	0xbca3063b	-0.019900432
207	0xbcd4eaa3	-0.02599079
208	0x3c525825	0.012838398
209	0xbb1bfc2c	-0.002380143
210	0x3da13e5b	0.078732215
211	0x3d96f602	0.07371141
212	0xbc93fb63	-0.018064206
213	0x3cc25337	0.02372132
214	0x3d300f4a	0.04298333
215	0x3cc6c0b8	0.024261817
216	0xbdf280ca	-0.11840971
217	0x3da889ef	0.08229434
218	0x3d3b58f7	0.04573914
219	0xbd62defd	-0.05538844
220	0x3d945dff	0.07244491
221	0xbbf7d6c3	-0.0075634434
222	0xbdb15fa0	-0.08660817
223	0xbc53d063	-0.012928101
224	0x3c1cffd1	0.009582476
225	0xbc940b00	-0.018071651
226	0xbde6fd4e	-0.11278783
227	0xbdf5ea68	-0.120076
228	0xbcd724ca	-0.02626266
229	0x3d88ddc6	0.06682925
230	0xbe068de8	-0.1314007
231	0x3d6882da	0.056765415
232	0x3c139acd	0.009009075
233	0xbc6c51bb	-0.014423783
234	0xbd9a19a0	-0.07524419
235	0x3d30d6c0	0.04317355
236	0xbd9ed737	-0.07755893
237	0xbcded2cb	-0.027200123
238	0xbd021234	-0.03175564
239	0x3d25895d	0.040414203
240	0xbca70028	-0.020385817
241	0xbac00a11	-0.0014651438
242	0xbe0963e7	-0.13417016
243	0x3db0ec54	0.08638826
244	0x3d877b0f	0.066152684
245	0xbe0fba5b	-0.14035933
246	0xbe1753e0	-0.1477809
247	0xbcdbfc5d	-0.026853735
248	0x3c6123d5	0.013741453
249	0x3e07ce69	0.13262333
250	0xbd734b1c	-0.0593978
251	0x3ced778c	0.028987668
252	0xbc8cc526	-0.017183851
253	0xbc7c8d91	-0.015414611
254	0xbe169e7a	-0.14708892
255	0xbd2b89a1	-0.0418793

network_body.observation_encoder.processors.0.conv_layers.0.bias f4 [16]
0	0x3d673940	0.056451082
1	0xbce23147	-0.027611388
2	0x3c34de7e	0.011039374
3	0x3ccdde82	0.025130514
4	0xbc8e5cf9	-0.017378317
5	0x3d163f0a	0.036681212
6	0x3d3b2b02	0.045695312
7	0x3d037c82	0.03210116
8	0x3d512aa2	0.05106605
9	0x3cdcd164	0.026955314
10	0x3d3d26f0	0.04617971
11	0x3d9d3e57	0.07677906
12	0x3d1fd0f4	0.039017633
13	0xbc790500	-0.015198946
14	0x3c2b7db4	0.010466982
15	0xba414b10	-0.0007373551

network_body.observation_encoder.processors.0.conv_layers.0.weight f4 [16, 6, 8, 8]
0	0xbd433d10	-0.047665656
1	0x3c4a952e	0.012364669
2	0x3bff9ce2	0.0078006843
3	0x3c98354c	0.018580101
4	0xbcee9075	-0.029121617
5	0x3cffb01d	0.031211907
6	0x3d9bbc66	0.076042935
7	0xbbc04b9e	-0.0058683893
8	0xbcbcf789	-0.023067253
9	0xbb1dfd2a	-0.0024107196
10	0x3c23ff3a	0.010009581
11	0xbdc7677f	-0.09736537
12	0xbd0831ff	-0.033250805
13	0xbbd64c5d	-0.006539865
14	0x3c850081	0.016235592
15	0x3c19dfab	0.0093917055
16	0xbd1f2893	-0.038857054
17	0x3c78d5da	0.015187705
18	0x3bb604cc	0.005554771
19	0xbc8a6dde	-0.016898092
20	0x3d182823	0.037147652
21	0x3bf79583	0.007555665
22	0xbc1370d1	-0.0089990655
23	0xbcdb9f17	-0.026809258
24	0xbd4c1145	-0.049821157
25	0x3ce7d67e	0.02830052
26	0xbc346c39	-0.01101213
27	0x3d1e40be	0.03863596
28	0x3c30065c	0.010743704
29	0x3c910a1e	0.01770502
30	0x3cad56c8	0.021159545
31	0xbcb60c56	-0.02222268
32	0xbd232e6c	-0.039839193
33	0x3d8b5a95	0.068043865
34	0xbbc3f670	-0.0059803054
35	0x3cd992e0	0.026559293
36	0xbd1bcd49	-0.038037572
37	0xbd99285b	-0.074784
38	0x3d5c9280	0.05385065
39	0x3d646d16	0.055768095
40	0xbccefb3a	-0.025266279
41	0x3b8c20a9	0.0042763543
42	0x3c9b507d	0.018959278
43	0xbd453f47	-0.04815605
44	0x3d033e99	0.03204212
45	0xbc660908	-0.014040239
46	0x3cb49c9c	0.022047333
47	0xbd0b4982	-0.03400565
48	0xbc80b0b7	-0.015709264
49	0x3c87d4a3	0.016580885
50	0xbd22401a	-0.039611913
51	0xbd336629	-0.0437986
52	0xbc417cd4	-0.0118095465
53	0xbd9f87a0	-0.0778954
54	0xbdb7f08a	-0.08981426
55	0x3b7b55ad	0.0038350627
56	0xbd37a8a8	-0.044838578
57	0xbce7f94c	-0.028317116
58	0xbd7b2454	-0.061313942
59	0x3cc9513a	0.024574865
60	0xbc846b83	-0.016164547
61	0xbca49b72	-0.020093653
62	0xbd2cb192	-0.04216153
63	0x3c81c9f7	0.015843375
64	0xbd89f9b4	-0.0673708
65	0xbbb17440	-0.0054154694
66	0x3b1c62fd	0.0023862713
67	0xbcd9d212	-0.026589427
68	0xbd6b558b	-0.057454627
69	0x3c748d19	0.014926218
70	0xbd9fcad3	-0.078023575
71	0x3d167445	0.036731977
72	0xbdb2f320	-0.08737779
73	0xbbd7aea0	-0.006582096
74	0xbda658a8	-0.081223786
75	0xbd72017a	-0.05908344
76	0x3d19164f	0.03737479
77	0x3da88d4e	0.08230077
78	0xbc55d58a	-0.0130514
79	0xbd6a713d	-0.0572369
80	0x3cc9dda2	0.024641816
81	0xbd22ff13	-0.03979404
82	0xb9547fc7	-0.00020265496
83	0xbd793a68	-0.060846716
84	0x3c09042f	0.008362814
85	0xbc3ea468	-0.011635877
86	0x3afce30e	0.0019293742
87	0x3cf996bc	0.030467384
88	0x3c612ffb	0.01374435
89	0xbb5a9524	-0.0033353055
90	0xbd79df5b	-0.061004024
91	0x3d510f65	0.051040072
92	0x3b28f1d5	0.0025778909
93	0x3cec6aa7	0.02885945
94	0xbc5a6f2c	-0.0133321695
95	0xbcf8a00b	-0.030349752
96	0x3b1da316	0.0024053506
97	0x3cffb950	0.031216294
98	0xbca8c750	-0.020602852
99	0x3cc45d86	0.023970377
100	0x3ba90a87	0.0051587257
101	0x3b462fe9	0.003024096
102	0x3c2e26b7	0.0106293475
103	0x3c4f87f3	0.01266669
104	0xbd3b9431	-0.045795623
105	0x3d1bae4e	0.038008027
106	0xbd26ef0b	-0.040755313
107	0x3cec63a2	0.028856102
108	0x3d78f9dc	0.06078516
109	0x3bcc1300	0.006227851
110	0xbca36267	-0.019944383
111	0x3daff741	0.08592082
112	0xb9539465	-0.0002017781
113	0xbd2fcf4a	-0.042922296
114	0x3bec9ef3	0.0072210967
115	0xbc7761dc	-0.015099015
116	0xbbb9c600	-0.0056693554
117	0xbd0264d4	-0.03183444
118	0x3be8e072	0.007106834
119	0x3b87bf3b	0.0041426695
120	0x3d428b21	0.047495965
121	0x3d10ede6	0.035383128
122	0xbc91c336	-0.01779328
123	0x3ca3534e	0.019937184
124	0x3dd26364	0.102728635
125	0xbbcd40f0	-0.0062638447
126	0xbce6a65c	-0.028155498
127	0x3d41351c	0.04716979
128	0x3c8e0698	0.017337129
129	0x3d22a56d	0.039708544
130	0x3d898ef1	0.06716717
131	0xbc186210	-0.009300724
132	0x3b4b2688	0.0030998308
133	0xbcf3de82	-0.029769186
134	0x3d8f66d5	0.070020355
135	0x3dac7cfd	0.08422277
136	0x3b954f61	0.004556582
137	0xbd57c6de	-0.05267989
138	0x3bcdede0	0.0062844604
139	0xbc5bf280	-0.013424516
140	0x3cd4118c	0.025887273
141	0x3d0e227b	0.034700852
142	0xbc6c5a36	-0.014425805
143	0x3c02e66b	0.007989506
144	0xbb4a7562	-0.003089272
145	0x3b903684	0.00440103
146	0x3b840595	0.0040289857
147	0x3d137856	0.036003433
148	0x3d7eb943	0.062188398
149	0x3c833545	0.016016612
150	0x3d1db9d1	0.038507286
151	0x3d276025	0.040863175
152	0x3d1a553a	0.037678935
153	0xbcca79a3	-0.024716204
154	0xbcf34804	-0.029697426
155	0x3d288594	0.041143015
156	0x3cf3a36c	0.029741012
157	0x3d9271cd	0.07150612
158	0x3d0c03d0	0.034183323
159	0xbc7c509a	-0.015400076
160	0x3d2ad467	0.04170647
161	0x3ca9f006	0.020744335
162	0x3877a0d2	5.9039165e-05
163	0xbc0abc82	-0.008467795
164	0xbbf60f5b	-0.0075091547
165	0x3cb2b4ad	0.021814669
166	0x3c3efeeb	0.011657457
167	0x3adeb89e	0.0016992276
168	0x3ce0fafb	0.027463427
169	0x3d3a4493	0.045475554
170	0x3c9b5e10	0.018965751
171	0x3c984b37	0.018590553
172	0x3d0a307d	0.03373765
173	0xbd0a0f0c	-0.033705756
174	0xbb8286aa	-0.0039833384
175	0xbca27445	-0.019830832
176	0x3bdf47a3	0.0068139597
177	0x3c790b69	0.015200474
178	0x3d75e689	0.06003431
179	0x3d91df72	0.07122697
180	0x3cfd2912	0.030903373
181	0x3c37a0a8	0.011207737
182	0xb9450b4f	-0.00018791597
183	0x3d8b8403	0.068122886
184	0x3d843327	0.06455069
185	0xbc118afb	-0.008883233
186	0x3da6c3ce	0.081428155
187	0x3dbb680b	0.09150704
188	0x3d95e757	0.07319515
189	0xbcdb3904	-0.026760586
190	0x3d8a1c30	0.067436576
191	0x3d9a89b0	0.07545793
192	0x3cb13ea3	0.021636313
193	0xbbadecab	-0.005307754
194	0xbd033682	-0.032034405
195	0xbc53f46f	-0.0129366955
196	0xbd04738e	-0.032336764
197	0xbd553516	-0.05205258
198	0x3cc4a91d	0.02400642
199	0xbd6e6603	-0.058202755
200	0xbcd36e2d	-0.025809372
201	0x3d3919fb	0.045190793
202	0x3b5a30fb	0.0033293355
203	0xbbbb2557	-0.0057112384
204	0xbc480e44	-0.012210432
205	0x3cf98b4f	0.030461935
206	0xbae42825	-0.0017406984
207	0x3dbbbad5	0.09166495
208	0x3a1a111e	0.00058771844
209	0xbd807a7f	-0.06273364
210	0x3cd77cca	0.026304621
211	0x3bdb9aa0	0.0067017823
212	0xbcc66fa6	-0.02422316
213	0xbd805558	-0.06266278
214	0xbc6cb552	-0.014447527
215	0x3d694eee	0.05696004
216	0x3dc81fd1	0.097716935
217	0xbd43cb1c	-0.047801122
218	0x3dbd0319	0.092291065
219	0x3d95b2a6	0.07309465
220	0x3cdd99c0	0.027050853
221	0xbdb8c268	-0.09021455
222	0x3d13ca89	0.036081824
223	0xbc28d1e2	-0.010303946
224	0x3d720010	0.05908209
225	0x3d1c2469	0.03812066
226	0x3d8c2a44	0.06843999
227	0x3a347911	0.00068844954
228	0x3d9d6f3e	0.076872334
229	0xbd8621a1	-0.06549383
230	0xbcadb00c	-0.02120211
231	0xbd801f8c	-0.06256017
232	0x3d1b0c52	0.037853546
233	0x3dcb06ad	0.09913383
234	0x3d5b9b2b	0.053614777
235	0x3d57df2b	0.052703064
236	0x3d965fbe	0.0734248
237	0xbda12a27	-0.07869368
238	0xbca3d8f6	-0.020000916
239	0x3d0d6cea	0.034527697
240	0xbc7b22fe	-0.015328167
241	0xbbc2e68c	-0.0059478935
242	0x3ca12c4a	0.019674439
243	0x3daf1b1b	0.08550092
244	0x3bef57e8	0.0073041804
245	0x3c3fa8f9	0.011698001
246	0x3b15c6ad	0.0022854016
247	0x3c879cc1	0.016554238
248	0xba1e985c	-0.0006049925
249	0xbca1641a	-0.019701052
250	0x3d782ce0	0.06058967
251	0x3d1de3ce	0.03854733
252	0x3b6364a1	0.003469743
253	0x3cf406fe	0.02978849
254	0xbcd10a24	-0.02551753
255	0x3d238922	0.039925702

network_body.observation_encoder.processors.0.conv_layers.2.bias f4 [32]
0	0x3d765590	0.060140193
1	0x3d870aa0	0.065938234
2	0xbc3db814	-0.011579532
3	0xbbc292dc	-0.005937917
4	0x3c48f4de	0.012265412
5	0xbb0da593	-0.0021613583
6	0xbcd080ed	-0.025452102
7	0x3c2326d0	0.009957984
8	0xbcf8161d	-0.030283982
9	0x3d3bfadf	0.045893546
10	0xbb593030	-0.0033140294
11	0xbc7bcbcd	-0.015368414
12	0x3d55a2c9	0.052157197
13	0x3b573aae	0.0032841372
14	0x3d5a9b86	0.053370975
15	0xbc0b6003	-0.008506778
16	0xbc97f74e	-0.018550541
17	0x3d57cbdf	0.05268466
18	0xbd65d11a	-0.056107618
19	0xbc893253	-0.01674763
20	0x3d3462f5	0.044039685
21	0x3d8aa086	0.06768899
22	0xbd2c3c77	-0.04204985
23	0xbd5998dd	-0.053124297
24	0x3c225237	0.009907297
25	0x3ceba205	0.02876378
26	0xbd4d14e6	-0.05006876
27	0x3b069802	0.002053738
28	0xbc6b9b44	-0.01438028
29	0xbb4d71f0	-0.003134843
30	0x3d8829fb	0.06648632
31	0x3d89b61f	0.0672419

network_body.observation_encoder.processors.0.conv_layers.2.weight f4 [32, 16, 4, 4]
0	0x3ce70167	0.02819891
1	0x3c4f99ed	0.012670976
2	0xbd2312d8	-0.039812893
3	0xbbc7f12a	-0.006101747
4	0x3d144cbf	0.036206003
5	0x3d8d097e	0.06886576
6	0x3c06cae2	0.008227082
7	0xbd3078ea	-0.043084063
8	0x3c8b5aa1	0.017010989
9	0x3d0e9fd1	0.03482038
10	0x3cef2edd	0.02919715
11	0x3d2497e7	0.040183928
12	0x3cfcf7bf	0.030879853
13	0x3d566b85	0.052348632
14	0x3ccdf31a	0.025140334
15	0x3da3a72a	0.079908684
16	0x3d049c74	0.032375768
17	0xbcd41527	-0.025888992
18	0xbd6ae382	-0.057345875
19	0x3d1a2545	0.0376332
20	0xbb55a21e	-0.003259785
21	0x3c033a89	0.008009561
22	0x3cd6b9f7	0.026211722
23	0x3cf23ffa	0.029571522
24	0xbd7784d2	-0.0604294
25	0xbce182f1	-0.027528258
26	0x3d7a3bd1	0.0610922
27	0x3cfee4b2	0.03111491
28	0x3cdd2f36	0.027000051
29	0xbd783140	-0.060593843
30	0xbcbca130	-0.023026079
31	0x3c8670ec	0.016411267
32	0x3dbc60ca	0.091981485
33	0x3d165238	0.036699504
34	0xbca54962	-0.020176593
35	0xbca178aa	-0.019710857
36	0x3d0e719e	0.034776323
37	0xbcd2081f	-0.025638638
38	0x3db0d7e9	0.086349316
39	0x3d7574a4	0.05992569
40	0x3b3714d3	0.0027935996
41	0xbd856e3c	-0.06515166
42	0x3c268571	0.010163651
43	0xbd189f85	-0.037261505
44	0xbb3f07e7	-0.0029148997
45	0x3d2bdde5	0.041959662
46	0xb9bf9ff2	-0.00036549527
47	0xbc540c7a	-0.012942428
48	0xbd21d6a7	-0.03951135
49	0xbd8fae8b	-0.07015713
50	0xbd3c0c47	-0.045910146
51	0xbd3304df	-0.043705817
52	0x3ddafef8	0.10693163
53	0xbd7cde5a	-0.06173549
54	0xbc0eb00c	-0.008708965
55	0xbbd46733	-0.006482029
56	0xbd56d3f3	-0.052448224
57	0xbd66ce2a	-0.056348957
58	0xbd2713da	-0.040790416
59	0xbc2757f5	-0.010213842
60	0x3d18e249	0.037325177
61	0xbb0a5632	-0.0021108505
62	0xbbff50ff	-0.007791638
63	0x3d2a31f1	0.041551534
64	0x3c74450a	0.014909038
65	0x3c258cd8	0.010104381
66	0xbd39e640	-0.0453856
67	0xbcf621a3	-0.030045336
68	0x3d9dcadc	0.07704708
69	0x3c8955a1	0.016764464
70	0xbdc159f3	-0.094409846
71	0xbc5b557e	-0.013387082
72	0x3ccc2c64	0.02492351
73	0xbd4e0593	-0.050298285
74	0xbb2265be	-0.0024779881
75	0x3d25d165	0.040482897
76	0x3da5a624	0.080883294
77	0xbd33d4a0	-0.043903947
78	0xbd8c67fe	-0.068557724
79	0xbd4511be	-0.048112623
80	0x3c9f9575	0.019480446
81	0xbd3db8c1	-0.046318773
82	0xbbd87115	-0.0066052773
83	0x3d47eaf4	0.048808053
84	0x3cb3f5bb	0.02196776
85	0xbd42155d	-0.047383655
86	0xbccec710	-0.025241405
87	0x3b8df1d1	0.0043318053
88	0x3ca253d9	0.019815372
89	0xbccd570d	-0.025065923
90	0x3d2f3f8a	0.042785205
91	0x3d84e0f1	0.06488217
92	0x3d82976c	0.06376538
93	0x3c428284	0.011871938
94	0x3ac03880	0.0014665276
95	0xbcf22112	-0.029556785
96	0xbcc018f6	-0.023449402
97	0x3d68225f	0.056673404
98	0xbd4bd32d	-0.04976194
99	0x3c295ff6	0.01033782
100	0x3d0d2a8c	0.034464404
101	0x369b7a4c	4.633597e-06
102	0xbd40615b	-0.046967845
103	0x3d826ecb	0.06368788
104	0xbd901a75	-0.07036296
105	0xbd81e8ab	-0.06343206
106	0x39c74458	0.00038007158
107	0x3cd4e6ae	0.025988903
108	0xbd5f96ff	-0.05458736
109	0xbd802afc	-0.062581986
110	0xbd6f13df	-0.05836856
111	0x3d135e38	0.035978526
112	0xbd0a4cf3	-0.03376479
113	0xbd8e7c46	-0.06957297
114	0x3da13f4e	0.078734025
115	0xbcb76134	-0.022385217
116	0xbd5b9b5c	-0.05361496
117	0x3c73e285	0.014885549
118	0xbd2229b2	-0.039590545
119	0x3c666f55	0.01406463
120	0xbd0fe37d	-0.03512906
121	0xbd1ea0ff	-0.038727757
122	0xbd2ac695	-0.04169329
123	0xbcf71009	-0.030159013
124	0xbd550b0a	-0.05201248
125	0x3c8c94cf	0.017160801
126	0x3c89eb16	0.01683573
127	0x3c91c82a	0.017795641
128	0x3d6c6d27	0.057721283
129	0x3d15750f	0.03648859
130	0xbcfff47c	-0.031244509
131	0xbcc51fa0	-0.024062932
132	0x3d3e201c	0.04641734
133	0x3cca17d9	0.024669575
134	0x3c8cae63	0.017172998
135	0xbd81e2f8	-0.06342119
136	0x3d2ef628	0.04271522
137	0xbd4f74d8	-0.05064854
138	0xbcc01e33	-0.0234519
139	0x3d8e1625	0.069378175
140	0xbb267548	-0.0025399495
141	0xbafb794b	-0.0019185928
142	0x3c515be5	0.012778257
143	0x3d9bf400	0.07614899
144	0x3d1836c7	0.037161615
145	0x3b25c862	0.002529644
146	0xbde2426e	-0.11047827
147	0xbccd2bbb	-0.025045266
148	0xbc5c128c	-0.013432156
149	0x3d479368	0.048724562
150	0x3c556eb5	0.013026883
151	0x3d2f2bc8	0.042766362
152	0x3d8b266f	0.0679444
153	0xbd7267d4	-0.05918105
154	0xbd575f5b	-0.052581172
155	0x3d2726a2	0.040808327
156	0xbcd51029	-0.026008682
157	0xbca4612c	-0.020065866
158	0x3d5b082c	0.05347459
159	0x3d9c1b1d	0.07622359
160	0x3d386240	0.045015574
161	0xbd530c11	-0.05152518
162	0xbd5e9530	-0.054341495
163	0xbc7be208	-0.015373714
164	0x3d8f6501	0.07001687
165	0x3a836e16	0.0010027315
166	0x3c47eaea	0.012202004
167	0xbd155d1e	-0.036465757
168	0x3d82b26c	0.063816875
169	0x3c5fc826	0.013658559
170	0xbd9ea0f7	-0.07745545
171	0x3c9d9c87	0.019239677
172	0x3cffca50	0.0312244
173	0x3d0fef12	0.035140105
174	0xbd8400b6	-0.06445448
175	0x3cb2449b	0.02176123
176	0x3c9b83a9	0.018983679
177	0x3d9f20ca	0.07769926
178	0x3dc800dd	0.0976579
179	0xbb46e198	-0.0030346867
180	0xbd51829e	-0.051149957
181	0x3da62698	0.0811283
182	0xbaeaf0e0	-0.001792457
183	0x3c111321	0.008854658
184	0xbd29023d	-0.0412619
185	0x3cdd9a77	0.027051194
186	0xbd968933	-0.073503874
187	0xbd97a70f	-0.07404911
188	0xbd1a23e1	-0.037631873
189	0x3dd3e360	0.10346103
190	0x3cd3b5cb	0.025843522
191	0x3c4ee7b4	0.0126284845
192	0x3b6f4697	0.003651058
193	0xbd86c8e9	-0.06581289
194	0x3d2c69b3	0.04209299
195	0x3d398f34	0.045302585
196	0xbca7b1e7	-0.020470573
197	0x3ccfb622	0.025355402
198	0x3dadca27	0.08485823
199	0xbd9c96d3	-0.07645955
200	0xbd254070	-0.040344656
201	0xbcad907d	-0.021187061
202	0xbc97365b	-0.018458536
203	0xbc401e9b	-0.011726047
204	0xbb8aac51	-0.0042319675
205	0xbabd1ea5	-0.0014428688
206	0x3de94b2d	0.11391292
207	0x3d2e59a3	0.042565953
208	0x3cb2b3ab	0.021814188
209	0xbcc66274	-0.024216868
210	0x3d3a74c9	0.04552153
211	0x3c34aebf	0.011027991
212	0xbd55d38b	-0.052203696
213	0xbd704c1b	-0.05866633
214	0x3ad78819	0.0016443759
215	0xbd969beb	-0.07353958
216	0x3b47f132	0.0030508754
217	0xbd8edba9	-0.069754906
218	0xbd8359ce	-0.06413613
219	0xbd2da337	-0.042391982
220	0x3cbde96f	0.023182599
221	0x3caf7bec	0.021421395
222	0xbd1cbbe4	-0.038265124
223	0x3d16434d	0.036685277
224	0xbbc72a24	-0.0060780216
225	0xbc284e70	-0.010272607
226	0x3d203073	0.039108705
227	0xbce8a38e	-0.028398301
228	0x3d40b654	0.04704888
229	0x3cf37a51	0.029721411
230	0x3bcaa0c5	0.006183716
231	0xbd9ee809	-0.07759101
232	0x3d8f743b	0.07004591
233	0xbb3a4278	-0.0028420966
234	0x3c055b8e	0.008139504
235	0x3ccbc0ea	0.024872262
236	0xbd84cc78	-0.06484312
237	0xbdd7ca99	-0.10536689
238	0xbbd0b5e9	-0.0063693416
239	0xbc87c63f	-0.016574023
240	0xbcb99c26	-0.022657465
241	0x3c920356	0.017823856
242	0x3d9ac135	0.075563826
243	0x3da428e5	0.080156125
244	0x3c83b44b	0.016077181
245	0x3d44dfca	0.048064984
246	0xbcbbf628	-0.022944525
247	0xbd4a6543	-0.049412977
248	0xbc11067e	-0.0088516455
249	0x3cb6e5f7	0.022326453
250	0x3cc65bcf	0.0242137
251	0xbd74816e	-0.059693746
252	0x3cb4ae7a	0.022055853
253	0xbd8f7c58	-0.070061386
254	0x3c594345	0.013260667
255	0xbce48416	-0.027895015

network_body.observation_encoder.processors.0.dense.0.bias f4 [256]
0	0x3bab6a8f	0.0052312086
1	0x3c26910f	0.010166421
2	0x3c96a0db	0.018387249
3	0x3bcb2156	0.0061990423
4	0x3b845d62	0.0040394524
5	0x3c7a1fa9	0.015266337
6	0x3c150c5a	0.009097183
7	0x3c960c87	0.01831652
8	0x3a99a176	0.0011721093
9	0x3c038268	0.008026697
10	0xbbbd6b46	-0.0057806103
11	0x3c581c29	0.013190308
12	0x3c8baf6f	0.017051427
13	0x3c740c56	0.014895519
14	0x3c937bb7	0.018003328
15	0xbb4995c2	-0.0030759429
16	0xbb8847a1	-0.0041589295
17	0x3cd1e144	0.02562011
18	0x3c8db2c4	0.017297156
19	0x3c103e45	0.008803909
20	0x3c6e49c0	0.014543951
21	0x3ca35632	0.019938562
22	0x3c049f6c	0.00809465
23	0x3cbc0820	0.022953093
24	0xbb8a0f63	-0.00421326
25	0x3c92ac2d	0.017904365
26	0xbc274e1f	-0.010211497
27	0x3c364611	0.011125104
28	0xbc4a8712	-0.012361305
29	0x3bc2bf72	0.005943232
30	0x3a41a86c	0.00073874625
31	0x3bc3a81c	0.005970968
32	0xbbbd014d	-0.0057679773
33	0x3c3b79a4	0.011442576
34	0x3c58fb4e	0.013243509
35	0xbbcc144f	-0.006228007
36	0xbbc96359	-0.0061458764
37	0xbafdd8fc	-0.0019367035
38	0xbc2ae3fa	-0.01043033
39	0x3c9bbb49	0.019010203
40	0x3ca6079f	0.020267306
41	0x3b1599f7	0.0022827366
42	0x3c1df82b	0.009641687
43	0x3c8f5a90	0.017499238
44	0x3c924318	0.017854258
45	0x3a97cef3	0.0011582061
46	0xbba97cf4	-0.0051723663
47	0x3c469893	0.0121213375
48	0x3cc36893	0.023853576
49	0x3c2aaf07	0.010417706
50	0x3bf787ad	0.0075540156
51	0xbb52de51	-0.0032175968
52	0x3cad670d	0.021167303
53	0xb9a5d0cd	-0.0003162682
54	0x3c8f747a	0.017511595
55	0x3c355797	0.011068246
56	0x3cb60701	0.022220137
57	0x3c9a7eff	0.018859385
58	0x3c83bea9	0.016082125
59	0x3c0bb677	0.00852739
60	0x3b99966b	0.0046871207
61	0x3caef051	0.021354826
62	0xbb29ef94	-0.0025930153
63	0x3c8295ef	0.015940635
64	0x3c2426af	0.0100189885
65	0x3c412d43	0.011790576
66	0x3c6fd2a9	0.014637628
67	0xbabd80dd	-0.001445796
68	0xbb9e150c	-0.0048242863
69	0x3c5f54c7	0.013631052
70	0x39942044	0.000282528
71	0x3b1a67f1	0.002356049
72	0x3be91afe	0.0071138134
73	0x3c498cf0	0.0123016685
74	0x3c83da17	0.016095204
75	0x3c9ed140	0.019386888
76	0xbb849391	-0.0040459116
77	0x3d068e5a	0.0328506
78	0xbbf5adea	-0.007497539
79	0xbb53a4cf	-0.0032294278
80	0x3cbec455	0.023286978
81	0x3c8a22b9	0.01686226
82	0x3c19187f	0.009344219
83	0x3b21598b	0.0024620022
84	0x3b48f163	0.0030661456
85	0xbb91751d	-0.00443901
86	0xbba859b7	-0.005137648
87	0xbbe6ac4c	-0.0070395824
88	0x3aaac78d	0.0013029441
89	0xbc815672	-0.01578829
90	0xbbbe09a8	-0.005799491
91	0x3ac1dc5b	0.0014790402
92	0xbb296ae6	-0.002585107
93	0x3b88d2c3	0.0041755154
94	0x3c7c474b	0.015397857
95	0x3ba995f7	0.005175348
96	0x3c9723d5	0.018449703
97	0xbb89e207	-0.0042078528
98	0x3c8770c8	0.01653327
99	0x3cacd88c	0.021099351
100	0x3c1ad637	0.009450487
101	0xb9849143	-0.0002528523
102	0x3c4a10b8	0.012333088
103	0x3c2f4374	0.010697234
104	0x3b71c9eb	0.0036894034
105	0x3c84accc	0.016195677
106	0x3b8295c1	0.003985137
107	0x3ca2eeba	0.019889224
108	0x3cb2269c	0.021746926
109	0x3b34fb2b	0.0027615528
110	0x3c3a02a1	0.011353166
111	0x3af9aaf5	0.0019048142
112	0x3c74c889	0.014940389
113	0x3c5d4452	0.013505058
114	0x3c3fbfa9	0.01170341
115	0xbb8c0143	-0.0042726113
116	0x3c4bc121	0.012436182
117	0x3baea935	0.0053302296
118	0xbad6f2b8	-0.001639924
119	0x3c8f2544	0.017473824
120	0xbadac584	-0.0016690944
121	0x3c9ba2ea	0.018998582
122	0x3ca7e949	0.020496981
123	0x3c1519be	0.009100376
124	0x3bd3fcd3	0.006469348
125	0x3cf28574	0.029604651
126	0xbaa68bf3	-0.0012706503
127	0xba97cce7	-0.0011581451
128	0xb9c70e92	-0.00037967094
129	0x3c305607	0.010762698
130	0xbb616078	-0.0034389775
131	0x3c4accb2	0.012377905
132	0x3c9d1593	0.019175326
133	0x3c4ce8d7	0.012506685
134	0x3b3d0fc8	0.0028848518
135	0x3b5123eb	0.0031912278
136	0x3bb54486	0.0055318503
137	0x3c2a46ae	0.010392828
138	0x3c0eb798	0.008710764
139	0x3c7daa1d	0.015482453
140	0xbc08312d	-0.008312506
141	0xbd078515	-0.0330859
142	0x3c46dd0d	0.012137664
143	0x3c4b8195	0.0124210315
144	0x3c1d17c0	0.009588182
145	0xbba3d398	-0.004999589
146	0x3cbf23d0	0.023332506
147	0xbbdd244f	-0.006748713
148	0x3ca35f29	0.019942837
149	0x3c046283	0.008080128
150	0x3cb2cc60	0.02182597
151	0x3c827084	0.015922792
152	0xbb2826a3	-0.0025657795
153	0x3c3915fa	0.0112967435
154	0x3bdfae05	0.0068261647
155	0xbc4c6d6d	-0.012477261
156	0x3c3f6ab6	0.011683157
157	0x3c303e2c	0.01075701
158	0x3c5b5b6d	0.013388497
159	0x3bd2ddd9	0.0064351377
160	0x3cc9d6d0	0.024638563
161	0x3c9c4cf9	0.019079672
162	0x3bb6a572	0.005573922
163	0x3c937a6f	0.018002717
164	0x3c1c0d12	0.009524601
165	0x3c62ae44	0.0138354935
166	0x3c7f11e7	0.015568233
167	0x3cc73e51	0.024321707
168	0x3c83f9ff	0.016110418
169	0xbbb0f951	-0.0054008146
170	0x3c3fa89c	0.011697914
171	0x3c49f3c5	0.012326186
172	0x3bec876e	0.007218293
173	0x393f6660	0.00018253317
174	0x39e36845	0.000433745
175	0x3cc34cfa	0.023840416
176	0x3cb8cf5c	0.022559814
177	0x3c0f634e	0.008751703
178	0xbb8e827e	-0.004349052
179	0x3c5c4735	0.013444711
180	0x3c1fad87	0.009745962
181	0xbbff9c5d	-0.0078006224
182	0x3cb5a416	0.022172969
183	0x3c9c6d58	0.019095108
184	0x3ba28b6b	0.0049604676
185	0xbb38af9c	-0.0028180843
186	0xbc3ec19f	-0.011642843
187	0x3c88c439	0.016695129
188	0xbbeb843c	-0.0071873944
189	0x3bb2c8b1	0.005456053
190	0xb9e3464f	-0.00043349198
191	0xbc456744	-0.012048546
192	0x3bb1710f	0.005415089
193	0x38ba231b	8.87571e-05
194	0x3af88906	0.0018961735
195	0x3c9d510e	0.019203689
196	0x3cb80007	0.02246095
197	0x3cafd373	0.021463132
198	0xbc8cf422	-0.017206255
199	0x3b54e11b	0.0032482806
200	0x3ca54f29	0.020179348
201	0x3c97c3c2	0.018525962
202	0x3c5b5061	0.013385863
203	0x39a832f7	0.0003208143
204	0x3cfc53c0	0.030801654
205	0x3ca07708	0.019588009
206	0x3c2ab98e	0.010420216
207	0x3c907f19	0.01763873
208	0xbc0456aa	-0.008077303
209	0x3c953a93	0.018216407
210	0xbb4b6980	-0.0031038225
211	0xbb187c77	-0.0023267546
212	0x3a8ae7e4	0.0010597673
213	0xbc24349e	-0.010022311
214	0x3c83295f	0.016010938
215	0x3b899650	0.004198827
216	0x3ca0547e	0.019571539
217	0x3af0ccae	0.0018371546
218	0x3c79268c	0.015206944
219	0x3c947b7f	0.018125294
220	0x3c81d4d0	0.015848547
221	0x3b67bbd9	0.0035359769
222	0x3c943805	0.018093118
223	0x3bfb1728	0.0076626725
224	0x3c906e37	0.01763068
225	0x3c8dbbd4	0.017301477
226	0x3cb05317	0.021523995
227	0x3b414a1d	0.0029493638
228	0xbab72936	-0.0013974074
229	0x3c826f23	0.015922135
230	0x3c0086f2	0.0078446735
231	0x3af70cd1	0.0018848424
232	0x3c1f178f	0.009710207
233	0x3caa5477	0.02079223
234	0xbbc6e77a	-0.0060700746
235	0x3b133d45	0.002246694
236	0x3ca3b5ae	0.019984093
237	0x3cb22c0f	0.021749524
238	0x3c5e89e8	0.013582684
239	0x3b9aedb0	0.0047280416
240	0x3c24378f	0.010023012
241	0xbb7d0974	-0.003861037
242	0x3c48dc39	0.012259536
243	0x3a929916	0.0011184539
244	0xbbb1032f	-0.005401991
245	0x3c459a5a	0.012060726
246	0x3bfd7625	0.007735031
247	0x3cd4f532	0.025995824
248	0x39242241	0.0001565302
249	0x3bd72f60	0.006566927
250	0x3b5ce196	0.0033703796
251	0xbaa752d1	-0.001276577
252	0xbac538f5	-0.0015046882
253	0x3cb6d289	0.022317188
254	0x3c55db49	0.01305277
255	0xbabc1604	-0.0014349823

network_body.observation_encoder.processors.0.dense.0.weight f4 [256, 512]
0	0x3c4084da	0.011750424
1	0x3dc7dbb0	0.09758699
2	0xbd46c46c	-0.048527166
3	0x3b4739d7	0.0030399465
4	0xbc71e699	-0.014764451
5	0x3d29289c	0.041298494
6	0xbc6e0948	-0.01452858
7	0x3c2e1de5	0.010627245
8	0xbc724efe	-0.014789341
9	0xbc9dbf33	-0.01925621
10	0xbbd19b63	-0.0063966974
11	0x3d1bf7be	0.038078062
12	0x3dba1540	0.09086084
13	0x3d79b65e	0.060964935
14	0x3db7294f	0.08943426
15	0x3dbe3956	0.0928828
16	0x3cf73637	0.030177219
17	0xbd437a50	-0.04772407
18	0xbd1f96c7	-0.03896215
19	0xbd755be1	-0.059902076
20	0xbe1b7d62	-0.15184548
21	0x3cfbdf59	0.030746149
22	0x3cac06dd	0.020999366
23	0x3ca2a4ea	0.019854028
24	0xbd913e93	-0.07092013
25	0x3d8cf60a	0.06882866
26	0xbc57bae3	-0.013167116
27	0x3d05b06b	0.03263895
28	0x3d95bdc5	0.07311586
29	0xbc0d1036	-0.008609822
30	0xbc85cd43	-0.016333228
31	0xbc626055	-0.013816913
32	0xbd321808	-0.04347995
33	0x3d82d78d	0.06388769
34	0x3c5d251b	0.013497616
35	0x3bcb1463	0.0061974986
36	0x3cec24d8	0.028826162
37	0xbc7b12d9	-0.015324318
38	0x3d8d3bdb	0.06896182
39	0xbdcc625b	-0.09979697
40	0xbdcf6be8	-0.10128003
41	0x3ddbe12a	0.10736306
42	0xbd133d64	-0.03594722
43	0xbc335401	-0.010945321
44	0xbb9f92e2	-0.0048698047
45	0x3ce066b5	0.027392725
46	0x3d76f16d	0.060288835
47	0x3c4ad798	0.012380503
48	0x3d135255	0.03596719
49	0x3d28483d	0.041084517
50	0xbca09523	-0.019602364
51	0x3bc6ce11	0.0060670455
52	0xbe0e3b7b	-0.13889877
53	0xbda05a31	-0.07829703
54	0x3d9aac01	0.075523384
55	0xbbff38fe	-0.0077887764
56	0xbc49e5eb	-0.012322883
57	0xbd076ae2	-0.033060916
58	0xbd827039	-0.06369061
59	0x3d418d08	0.04725364
60	0x3cc0e5d8	0.023547098
61	0xbdff3b3e	-0.124624714
62	0x3cd397fb	0.025829306
63	0x3d4f9e02	0.050687797
64	0x3d388e73	0.045057725
65	0xbbcda570	-0.006275825
66	0xbd7645b1	-0.060125057
67	0xbbe89c8e	-0.007098741
68	0x3dc3be94	0.09557834
69	0x3b084075	0.0020790373
70	0x3dc84a59	0.09779806
71	0xb95bffd1	-0.00020980767
72	0xbdb03114	-0.08603111
73	0x3b6e732f	0.0036384573
74	0xbc93c1db	-0.018036773
75	0x3b082fe6	0.0020780503
76	0x3ce63a21	0.02810389
77	0xbd6f041c	-0.05835353
78	0xbb003874	-0.0019564899
79	0xbb819cd5	-0.0039554634
80	0xbc1b3731	-0.009473608
81	0xbcb22386	-0.021745455
82	0x3d3a079e	0.04541742
83	0x3dab0086	0.08349709
84	0x3c7b9cea	0.015357235
85	0x3cfed457	0.03110711
86	0xbda619d7	-0.08110397
87	0xbcccb10f	-0.024986772
88	0xbdb7fab6	-0.08983366
89	0x3d70aae8	0.05875674
90	0x3ceda012	0.029006992
91	0x3e1b8015	0.15185578
92	0xbda13c5f	-0.07872843
93	0xbe0a7f3f	-0.13525103
94	0x3d7630c3	0.060105097
95	0xbc7d6e6d	-0.015468222
96	0x3d9388e9	0.07203848
97	0x3dbb920a	0.09158714
98	0xbda622f4	-0.081121355
99	0x3d06010e	0.03271585
100	0x3c0e60d7	0.008690081
101	0xbe0bc716	-0.13650164
102	0x3d92b745	0.07163862
103	0xbd201de9	-0.039091025
104	0xbd2cf33a	-0.042224146
105	0xbd96e318	-0.073675334
106	0x3db0f129	0.08639748
107	0xbd7739b3	-0.06035776
108	0xbe0e92e5	-0.13923223
109	0xbd4885f1	-0.04895586
110	0x3d10dfe2	0.03536976
111	0xbd8bb580	-0.06821728
112	0xbd9febef	-0.07808673
113	0x3dd418bc	0.1035628
114	0xbd59e74c	-0.053199098
115	0xbd5483ed	-0.051883627
116	0xbd885cb0	-0.06658304
117	0xbcea4105	-0.028595457
118	0x3da885bb	0.08228632
119	0xbdbc3038	-0.091888845
120	0xbb926f02	-0.0044687996
121	0x3d2a5e21	0.041593675
122	0x3e1f2893	0.15542822
123	0x3dd9d036	0.10635416
124	0xbd8e4326	-0.06946401
125	0x3d255e6b	0.040373247
126	0x3e0f6fcb	0.1400749
127	0x3dabe58f	0.08393394
128	0x3cd86faa	0.026420433
129	0xbb576d51	-0.0032871554
130	0x3b6cbdf6	0.0036123968
131	0xbdeb887f	-0.11500644
132	0x3c4dfe0a	0.012572775
133	0xb9a51a9d	-0.0003149108
134	0xbdc85dbb	-0.09783503
135	0x3a3a2a7d	0.0007101668
136	0xbdc3b279	-0.09555525
137	0x3df6e935	0.120561995
138	0xbda7acbb	-0.081872426
139	0x3d6e963c	0.058248743
140	0x3cbcf71d	0.023067052
141	0x3de3475b	0.11097594
142	0x3d962b35	0.0733246
143	0x3da0195a	0.078173354
144	0xbdb6d91d	-0.0892813
145	0xbc3cb3fc	-0.011517521
146	0x3dac13a3	0.08402183
147	0x3d31204c	0.04324369
148	0xbd2bd52c	-0.041951343
149	0xbd07f9e5	-0.033197302
150	0x3cba7401	0.022760393
151	0xbd8f34c6	-0.069924876
152	0xbdb5e8b2	-0.08882274
153	0x3c344970	0.011003837
154	0x3de77c14	0.11302963
155	0x3dac1e00	0.084041595
156	0x3bd69634	0.0065486673
157	0xbd4f2c5f	-0.050579425
158	0xbc8de76d	-0.017322266
159	0x3d0303a6	0.0319859
160	0x3d38177c	0.04494427
161	0x3e0860be	0.13318154
162	0xbd07dfe0	-0.03317249
163	0x3b9b82f0	0.0047458336
164	0xbbcf5c44	-0.0063281376
165	0x3d51c1a2	0.051210053
166	0x3ad44074	0.0016193525
167	0xbe06dfb9	-0.13171281
168	0x3e04d219	0.12970771
169	0x3e55a231	0.20862652
170	0x3cb35475	0.021890858
171	0xbd378a08	-0.04480937
172	0xbc8eb805	-0.017421732
173	0x3d43066b	0.047613543
174	0x3b93f208	0.0045149364
175	0xbc4a21f9	-0.012337201
176	0x3a20f354	0.00061397743
177	0xbd8e5718	-0.069502056
178	0x3dc4f454	0.096169144
179	0xbc9d63ed	-0.019212687
180	0x3dd24502	0.102670684
181	0xbccc4c5f	-0.02493876
182	0xbcdbaea4	-0.026816674
183	0xbddcebf4	-0.10787192
184	0xbbe55ef7	-0.006999846
185	0x3dfaf524	0.12253788
186	0xbc875bd3	-0.016523277
187	0x3c96ef66	0.018424701
188	0x3c24f9e6	0.010069346
189	0x3df2e5ed	0.11860261
190	0x3cf02141	0.029312732
191	0x3d175c13	0.036953043
192	0x3d9edb8b	0.07756718
193	0xbd9d769b	-0.07688638
194	0x3d1a2287	0.037630584
195	0x3d867bea	0.065666035
196	0xbaed61f6	-0.001811086
197	0x3d0b9802	0.034080513
198	0xbd373962	-0.04473246
199	0xbd524dc5	-0.051343698
200	0xbbaff039	-0.005369213
201	0x3d639d62	0.055570014
202	0x3c25001e	0.010070829
203	0x3d9dbb6e	0.07701765
204	0xbc32a65c	-0.010903921
205	0xbd61d7e7	-0.05513754
206	0x3d23a9b1	0.039956752
207	0xbe14c926	-0.14529857
208	0xbd9ba5bc	-0.07599971
209	0xbd138605	-0.036016483
210	0xbc5550b0	-0.013019726
211	0x3cfe43e7	0.031038238
212	0xbd699290	-0.05702454
213	0x3d113623	0.03545202
214	0x3d32712d	0.043564964
215	0xbd9531d8	-0.072848976
216	0x3d3b3e7f	0.045713898
217	0xbc253d2d	-0.010085386
218	0xbc98d2d4	-0.018655218
219	0x3d1c4427	0.038150933
220	0x3c853503	0.01626063
221	0x3d00629f	0.031344052
222	0x3e181776	0.148527
223	0xbd94d29c	-0.07266733
224	0x3e072475	0.13197501
225	0x3be0ff42	0.0068663666
226	0x3d44e63c	0.04807113
227	0x3e1c93ab	0.15290706
228	0xbe144457	-0.14479195
229	0xbd083326	-0.033251904
230	0x3d85a21f	0.06525063
231	0xbd9f2c29	-0.07772095
232	0xbdaa395c	-0.08311722
233	0xbdb4a6a4	-0.08820847
234	0xbd40e595	-0.047093946
235	0x3b54b5ec	0.0032457067
236	0x3d0e9bdc	0.034816608
237	0xbd06b022	-0.032882817
238	0xbcbaa992	-0.022785936
239	0x3cc1b898	0.023647591
240	0xbd5bf148	-0.0536969
241	0xbd298a94	-0.041391924
242	0x3d32fc70	0.043697774
243	0xbdac5474	-0.08414546
244	0xbd955368	-0.07291299
245	0xbc2d6600	-0.010583401
246	0x3cff911d	0.031197125
247	0x3c77d094	0.0151254125
248	0xbdc46236	-0.09589045
249	0x3c80f898	0.015743539
250	0xbcd984a4	-0.026552506
251	0x3d697427	0.056995537
252	0x3c820cda	0.015875269
253	0xbd0f21a9	-0.03494421
254	0x3c03fd7b	0.00805604
255	0xbe2d8692	-0.16945866
